model.ckpt (torch_old, 248633 bytes, 10 tensors)

conv1.0.weight f4 [6, 1, 5, 5]
000000 6b 9e 25 3d 4e a8 34 3e ca 2b 9a 3e d4 42 83 3e
       0.040434282 0.17642328 0.30111533 0.25636923
000010 29 8a d0 3d cf a1 a0 3d 2d 99 0d 3e 4a a3 3d 3f
       0.10182602 0.078433625 0.13827963 0.74077284
000020 b0 d4 3a 3f 89 e6 b0 3e b6 45 b7 3e e2 bc 3d 3f
       0.72980785 0.34550884 0.35795373 0.7411634
000030 fd 3c 4d 3f 90 d5 03 3f f3 ab 7c 3e 05 c5 b5 3e
       0.80171186 0.51497746 0.24674968 0.35501876
000040 30 2b 8c 3e 91 05 26 3f d9 ab cb 3e 51 d5 af 3e
       0.273767 0.64852244 0.39779547 0.34342435
000050 84 86 e7 3d bf 55 50 3e 12 26 a6 3b 8b bd 84 3e
       0.11304954 0.2034521 0.0050704563 0.2592586
000060 b5 6b 88 3e 85 e0 5e bd 58 9f 2b 3e 1d 5b 88 3d
       0.26644674 -0.054413337 0.16760004 0.066580035
000070 e0 0e 40 3e 68 ab 96 3e 69 1f 68 3e 6c 7a e0 3d
       0.18755674 0.29427648 0.22668232 0.1096085
000080 7d 0d a3 3d 2d 7b 9b 3d 1e 04 f4 bd d1 c9 37 bd
       0.07961557 0.07591853 -0.11914848 -0.0448702
000090 4a dc c6 bd 82 85 98 bd 9b e4 14 3d c3 83 67 be
       -0.097099856 -0.074473396 0.036350828 -0.22608857
0000a0 56 c5 9e 3d 91 63 40 be f4 ce 2c 3d 88 4c 36 be
       0.077524826 -0.18787982 0.042189553 -0.17802632
0000b0 b9 ae dd 3d 90 cc 3c 3d 95 27 b0 bd 19 16 ff bd
       0.10824341 0.046093524 -0.086013 -0.12455387
0000c0 d9 b1 32 be 00 5c 25 bd 92 c5 d6 3d b9 45 6d 3e
       -0.17450656 -0.04037094 0.10486902 0.23171128
0000d0 8c 2d 89 bd 8d 7a d3 bd 8e 20 01 be 3d 83 bc 3e
       -0.066981405 -0.10326109 -0.12610075 0.36818877
0000e0 48 94 81 3c 7d 24 6d be aa 8a 3a be 2c e1 cb bd
       0.015817776 -0.2315845 -0.18216959 -0.099550575
0000f0 94 ea ae 3e 7b 62 14 3e ad 3d 64 be 0d 6e ad bd
       0.34163344 0.14490692 -0.22289152 -0.08468256
000100 06 9e 76 3c 3b 6e 82 3e 02 b2 93 bd f6 ad 23 be
       0.015052324 0.25474724 -0.07211687 -0.1598433
000110 03 29 d5 bd e8 38 36 bd 60 c9 9a 3e c2 46 b7 bd
       -0.10408213 -0.044487864 0.30231762 -0.08949043
000120 ab b8 78 3c d3 14 13 be e3 a4 87 bd 96 70 db 3d
       0.015180747 -0.14363413 -0.066232465 0.107148334
000130 a0 03 76 be cf f4 66 be 1d 95 45 be a4 ee 5f bd
       -0.2402482 -0.22554325 -0.19295163 -0.054670945
000140 92 3f 05 be bd 85 a6 3d cf 14 54 be 2f 7e b6 3d
       -0.13012531 0.08130977 -0.20711063 0.08910786
000150 f8 0a b7 bd 65 10 ac 3e f4 08 fe 3e ab b0 f6 3e
       -0.08937639 0.33606258 0.49616206 0.48181662
000160 7b 04 43 3e a6 50 a9 3e 8b be d9 3e 08 49 24 3f
       0.19044678 0.33069342 0.42528185 0.64173937
000170 37 c4 9d 3e e4 a7 a9 3d dd 4f 3e 3c 48 0d a1 3e
       0.30813763 0.08283976 0.011615721 0.31455445
000180 02 0d 1c 3e ae b8 ce 3d eb e2 90 3c 54 0a 26 3e
       0.15239337 0.100938186 0.017686328 0.16214877
000190 e0 8c 04 be 00 6b 53 3e 91 9a 2a 3e 6f 80 87 bd
       -0.12944365 0.20646286 0.16660525 -0.06616294
0001a0 a8 0e 2b be ac de 46 3e e9 16 4d 3e 13 5a fd bc
       -0.1670481 0.1942088 0.20028271 -0.03092674
0001b0 f9 28 57 be fb d2 52 be 73 ed d8 bd dd a8 16 3e
       -0.21011724 -0.20588295 -0.10592165 0.14712854
0001c0 e9 6d 80 be 20 bf 02 3d 43 46 87 bd b1 4a a6 3d
       -0.25083855 0.031920552 -0.06605198 0.08119715
0001d0 07 e3 12 be e2 d3 fe 3d 08 78 65 be 34 95 5b be
       -0.14344417 0.12442757 -0.2240907 -0.21443635
0001e0 6c 5e 2f be c7 68 18 be 8f 46 19 bd 78 d0 be 3d
       -0.17125863 -0.1488372 -0.037420806 0.09317106
0001f0 73 7f 51 be c3 53 c4 3d 49 2a 85 bd a7 bb 44 bc
       -0.20458774 0.09586289 -0.06502206 -0.01200763
000200 8c 3b e0 bd ea e6 db 3d 6c 71 2a 3c f2 15 76 be
       -0.10948858 0.10737403 0.010403018 -0.24031809
000210 20 a4 8c bd e1 81 a4 3e 36 0b 09 3e 66 d0 5e be
       -0.06867242 0.3213034 0.13383183 -0.21759185
000220 da 6d 8f 3a c0 7d 00 3d 5c e9 10 3f f0 46 c9 3d
       0.0010942772 0.031369925 0.5660608 0.098279834
000230 71 c2 92 3e 60 e4 4f 3e 91 68 16 3f 94 c5 0e 3f
       0.28663972 0.20301962 0.58753306 0.5577023
000240 7f ff 16 3f 0c 66 b1 3d 8f b1 1a 3e 0b bb 04 3f
       0.58983606 0.08662042 0.15106796 0.51847905
000250 c8 66 ac 3e f6 2a d3 3e
       0.33672166 0.41243714

conv1.0.bias f4 [6]
000000 ff 8f b9 ba 6e 41 ef 3c e1 4c d0 3c 5c 6b 2f 3d
       -0.0014157294 0.029206004 0.025427284 0.042826995
000010 d8 6e 7a 3e d9 b1 8c 3a
       0.24456346 0.0010734155

conv2.0.weight f4 [16, 6, 5, 5]
000000 88 3d b3 3c 06 0d 82 bc b1 39 8a bc 28 ad 9c bd
       0.021879926 -0.01587535 -0.016873213 -0.076502144
000010 f3 e9 26 bb 40 cc 53 3d 69 c4 03 bd 00 b8 7b 3d
       -0.0025469034 0.05170846 -0.032169733 0.061454773
000020 35 e6 3a bd ae 88 b4 bc fd 2f 0b bd 8e e3 ee bc
       -0.0456297 -0.02203783 -0.033981312 -0.02916124
000030 2b 7c 0f bd 87 de 96 bd 4c fb cd bc ee c8 75 3d
       -0.035030525 -0.073666625 -0.025144242 0.060006075
000040 2a 90 12 bd a9 0b 59 3d 35 b0 46 bd be 0b be 3c
       -0.035782017 0.052989636 -0.048507888 0.023198958
000050 bd ee a6 bd 61 d8 a7 bd 56 96 4d bd 2a 22 93 bd
       -0.081510045 -0.08195568 -0.0501922 -0.07184251
000060 0d a9 c0 3c 38 87 7f bd 29 e3 cb 3c 97 60 99 bd
       0.02351811 -0.062384814 0.024888592 -0.07489126
000070 c7 53 b3 3b e2 eb 42 bd 97 dc 8d bd a1 5f 03 3a
       0.0054726335 -0.047588237 -0.0692684 0.0005011503
000080 e1 b1 28 bd b9 99 72 bd 66 a2 9c 3d b9 d5 92 3d
       -0.041185264 -0.059228633 0.076481625 0.071696706
000090 9e 3a 8a bc 2b 8d 4d 3d 2a 8e 12 3d e1 13 1e bb
       -0.016873654 0.050183456 0.03578011 -0.0024120735
0000a0 5c 1d 88 3c db 6e 9a bb a2 7e b4 3a 51 27 40 3d
       0.016615562 -0.004712922 0.001377065 0.046912495
0000b0 4d c7 1c bc 54 ba 26 3c a3 89 fe 3c b0 48 81 ba
       -0.009569001 0.01017626 0.03107149 -0.0009863582
0000c0 6f ab 87 3c a1 3a 9d 3c f3 01 68 bd 60 09 92 bd
       0.016561238 0.019192996 -0.056642484 -0.071306944
0000d0 a3 0b 28 3d 8b 40 58 bd 48 aa 61 3d 9d 3d 3e bc
       0.041026723 -0.052795928 0.055094033 -0.011611369
0000e0 12 e7 3e 3d 51 a4 49 bd b3 8a a7 bc 3a 2c 82 bd
       0.046607085 -0.04922897 -0.02045188 -0.06356092
0000f0 4f 90 31 bd 65 50 9b bd aa 8c 90 bd 68 44 9f 3c
       -0.043350514 -0.075836934 -0.070580795 0.019441798
000100 47 19 66 bc e6 f4 41 3d 3b 60 62 3d 45 6d 06 bd
       -0.0140441125 0.047352694 0.055267554 -0.03281905
000110 2d a6 ad bc b7 23 30 3d 05 25 a5 bd 07 ac 35 3d
       -0.021197403 0.04300281 -0.080637015 0.04435351
000120 67 94 8f bd 8a 7b 9f bd d0 5f 69 bd ae f2 87 bd
       -0.070107274 -0.07787235 -0.05697614 -0.06638084
000130 59 5e 30 3d bd ec a3 bd 6b 48 09 3c 70 56 8a bd
       0.043058727 -0.080041386 0.008379082 -0.06754768
000140 70 c8 39 bb 93 f3 48 3d 9a dd b7 3b ab d0 81 bd
       -0.002834823 0.049060415 0.0056111338 -0.063386284
000150 89 da ae bc 08 75 a6 bd cc 0d 9b bc 19 30 81 3d
       -0.02134444 -0.08127791 -0.018927477 0.06308002
000160 fd df e3 3b 42 58 c6 3c 88 c2 9c bd 76 64 4d 3d
       0.0069541917 0.024212006 -0.076542914 0.050144635
000170 d9 4a 3a bc be 27 43 bd b0 7b a1 bd a0 a8 16 3d
       -0.011370384 -0.047645323 -0.0788492 0.036781907
000180 86 10 1f 3c b8 65 71 bd a9 de 87 3d 5b 07 41 3c
       0.009708529 -0.058934897 0.06634266 0.011781539
000190 d3 d1 a5 3d e8 12 22 bc 6e da e6 3c 4f d2 84 bd
       0.080966614 -0.009892203 0.028180327 -0.06485426
0001a0 fa 76 6c 3d c7 84 75 3d 7e 03 7c 3d 2b a7 01 3d
       0.057730652 0.05994108 0.061526768 0.031653564
0001b0 6a a1 7a bd af de 90 bd a4 d3 28 3c c0 4f ce bc
       -0.061189093 -0.070737235 0.010304365 -0.025184512
0001c0 19 29 03 bc ab 05 8c bd 49 7b 97 bc a2 cd 9c bd
       -0.008005404 -0.068370186 -0.018491404 -0.07656409
0001d0 ef d8 35 3d 03 92 18 3d 53 bb 9e 3d 9d d7 61 3d
       0.044396337 0.037248623 0.07750573 0.055137265
0001e0 dd 4f 7a 3c 05 ff da bc f8 0c 9c bd 46 4f a3 bc
       0.01527783 -0.02673293 -0.07619661 -0.019935261
0001f0 38 f9 fe 3c 37 33 9f bc 6b 04 1d bd d7 75 36 bd
       0.031124696 -0.0194336 -0.03833429 -0.044545975
000200 b6 87 30 bd b8 ef a7 3c 04 f5 8b bd c5 21 b0 bc
       -0.043098174 0.020500049 -0.068338424 -0.021500478
000210 c1 04 ac bc 45 96 d9 3c 8b 46 42 bd 51 19 c7 3c
       -0.02099836 0.026560912 -0.047430556 0.024304064
000220 98 31 f7 bc 01 1e ed 3a 9e c1 a1 bd eb 83 16 3d
       -0.030175015 0.0018090607 -0.07898258 0.0367469
000230 5a c7 d3 bc fb 70 91 bc e8 a6 2f 3d 26 ee 18 bd
       -0.025851894 -0.017754069 0.042883784 -0.03733649
000240 fa 3a 88 bc ea 82 eb bc f8 63 62 3c d2 45 80 3b
       -0.016629685 -0.028748948 0.01381778 0.003914573
000250 44 70 89 3d 59 8a 96 3c 4b 76 37 bd 35 cf 33 bb
       0.06710866 0.018376516 -0.044790547 -0.0027436737
000260 4e 68 d3 3c 48 77 89 bd d1 01 58 be a7 c2 a9 3d
       0.025806572 -0.06712204 -0.21094443 0.0828908
000270 6d 95 39 3d ff 47 01 be 71 9f 88 bd 04 23 69 3d
       0.04530852 -0.1262512 -0.06671036 0.05691816
000280 9e db ee bb a5 1a 89 bd 32 a4 7c bd de bc cb 3d
       -0.007289364 -0.06694535 -0.061680026 0.09948133
000290 ea 37 c9 3d b9 27 15 be 85 58 8e bd 11 e0 b0 3d
       0.09825118 -0.14565934 -0.069504775 0.08636487
0002a0 ee b6 0c 3e 6b 6f ff bc e3 12 40 bc a9 ac a3 3d
       0.13741657 -0.031181058 -0.011723253 0.07991917
0002b0 dc 0d 22 bd da 1e 1d 3a eb 96 31 bd 55 10 6b bd
       -0.039564 0.0005993672 -0.043356817 -0.057388622
0002c0 b4 45 ae bd e9 d0 e1 3b da b1 5b bd ff a8 1c 3d
       -0.085093886 0.006891359 -0.05363641 0.038247105
0002d0 89 01 94 3d 5d 01 72 3d 50 33 79 3b 23 70 2b 3d
       0.07226855 0.05908333 0.003802497 0.04185499
0002e0 1c f3 b8 bd 4b 83 9e bc 99 d0 98 3d 9f 32 0c 3c
       -0.090307444 -0.019349715 0.07461662 0.008556991
0002f0 2d 1d 89 3d 9a a8 90 bd 61 58 c2 bc 27 13 f3 3b
       0.06695018 -0.07063408 -0.023723783 0.0074180546
000300 2f de 9d bd 58 f5 80 ba 5f 9e d8 3c 7a a9 c5 3c
       -0.07708394 -0.0009838743 0.026442705 0.024128664
000310 0c ef 25 3d 79 f0 9b bb 83 29 31 bd 5a 16 93 3a
       0.040511176 -0.004758891 -0.04325248 0.0011221871
000320 12 85 57 bd ad 38 98 3d bd 77 4d 3d 4e 13 ad 3d
       -0.05261714 0.07432685 0.05016302 0.08450948
000330 1d 34 59 bd 4e 92 0e bd 69 2b 88 3d 44 71 0a bd
       -0.053028215 -0.034807496 0.06648905 -0.033799425
000340 f3 35 30 bd 74 11 8e 3d ec 6c c3 3c 3f 07 0e bd
       -0.0430202 0.06936923 0.023855649 -0.03467488
000350 65 96 4e 3d cb b3 b8 3c 0f 4c 53 3d 00 f7 70 bd
       0.050436396 0.02254667 0.051586207 -0.058829308
000360 4d ad 9b bc 63 7d 9c 3b 09 5f 22 3d 12 76 c2 3d
       -0.019003535 0.0047756894 0.039641414 0.094951764
000370 35 1e 48 3d a3 02 78 bd 1d d3 4d bd 43 f9 22 3d
       0.048856933 -0.06054939 -0.05025016 0.039788496
000380 76 e4 af 3d 6a 8a 90 bb 35 74 02 3e 0b 81 34 bb
       0.08588497 -0.0044110315 0.12739642 -0.0027542736
000390 cb d2 27 bd 17 da 1e bd 1d 75 0e 3e 36 e5 4c 3d
       -0.040972512 -0.038782205 0.13911863 0.05002328
0003a0 ce 43 7f bc 4a 3b 85 bc 57 1d 45 bd 7c 13 e9 3c
       -0.015580131 -0.016263623 -0.048123684 0.028451674
0003b0 15 25 a9 bd d4 e3 f1 3c a5 f0 85 3d 08 79 6f 3c
       -0.08259026 0.029527582 0.0654004 0.014616258
0003c0 48 73 be 3c 1c e5 df 3d 85 3a f1 3d 65 b8 fe 3d
       0.02324833 0.10932371 0.1177874 0.12437514
0003d0 52 b7 24 bd 6d 08 3e bd 1f a1 53 3d b1 ac e6 3c
       -0.04021389 -0.046394754 0.05166733 0.028158518
0003e0 94 a2 ae bd 4a 90 db 3c 5b 2c 52 3d 5c 46 89 3d
       -0.08527103 0.0268022 0.051311832 0.06702873
0003f0 6a 84 8b bd a1 b7 8a 3a 13 47 92 bd 45 fe 24 bd
       -0.06812365 0.001058329 -0.071424626 -0.040281553

conv2.0.bias f4 [16]
000000 3b f1 15 bc 94 5c 01 3d 10 91 20 bd 37 b9 29 3d
       -0.009151752 0.03158243 -0.039200842 0.0414364
000010 f3 1a b2 3b e0 e3 aa bc 2c 3e 2b 3d 32 7d 77 bd
       0.0054353415 -0.020860612 0.04180734 -0.06042213
000020 ab d6 3f bd 7b b8 7d 3d 58 71 c5 bd e4 f3 2b 3c
       -0.046835583 0.061943512 -0.09640759 0.01049516
000030 99 12 e0 3c 23 e2 11 bb a4 c5 8b bc 5e 84 f0 3c
       0.027352618 -0.0022260032 -0.017062016 0.029359993

conv3.0.weight f4 [120, 16, 5, 5]
000000 93 22 db 3c 6e 5e 16 3d be bb 71 3c 18 a9 2b bd
       0.026749885 0.03671115 0.014754234 -0.041909307
000010 6c 8e 19 bd 53 e5 43 3c 62 60 fa bc b5 d8 28 bd
       -0.03748934 0.011956531 -0.030563537 -0.041222293
000020 92 da 22 bd c1 01 b2 3c 76 80 26 3d a4 9c f8 bc
       -0.039759226 0.021729352 0.040649854 -0.03034813
000030 8d 9e 04 bd 02 f5 02 bd a1 9f 01 3d cb 4e c0 bb
       -0.03237777 -0.03197194 0.031646375 -0.005868768
000040 af eb dd 3c 1b c8 4c bd 08 24 0a 3c 60 c3 c8 bc
       0.027089922 -0.049995523 0.008431442 -0.024507225
000050 af a4 10 3d 1b 38 b5 3c 0d 36 44 bd 7b 7c 0e 3c
       0.035313305 0.02212148 -0.04790311 0.008696671
000060 29 c2 37 bd 34 c0 f6 3c 43 d6 e1 3b 19 31 28 bc
       -0.0448629 0.030120946 0.006891997 -0.010265612
000070 93 6a 8d 3c 50 c5 59 bc 7a 13 d9 bc 41 34 e8 3b
       0.017262733 -0.013291672 -0.026498545 0.0070863073
000080 5c d5 46 bc a0 5a 5e 3d 58 44 80 3d f3 e4 eb 3b
       -0.01213583 0.054285645 0.062630355 0.0071989237
000090 5a 93 10 3d 4a 14 61 3d 9e c2 1e bd 8f fc 59 3d
       0.035296775 0.05495099 -0.03875982 0.053219374
0000a0 71 c2 6a 3d fc 81 e4 3d 31 3d 37 3c 9d 23 21 3d
       0.05731434 0.11157605 0.011184023 0.039340604
0000b0 86 d8 ae 3d a2 10 63 bb 2c b1 8a 3c 94 5c 07 bc
       0.08537392 -0.0034647365 0.016930185 -0.008261818
0000c0 2a 8d a8 3d 2e ef 50 3d ff 46 3a bb 28 25 5b 3c
       0.0823005 0.05100935 -0.0028423665 0.013375558
0000d0 c8 33 84 bc 77 d6 76 bd 66 c1 44 bd 5d 1c 1d 3d
       -0.016137972 -0.060263123 -0.048036 0.038357127
0000e0 4d 7c 39 bd 52 1b 15 bd d0 1b 09 bd 8b df 46 bd
       -0.045284558 -0.036403008 -0.03347379 -0.04855303
0000f0 68 b0 5a 3d b1 b7 cf 3b f1 fc 3f 3d 68 32 40 bd
       0.05339089 0.0063390364 0.046872083 -0.04692307
000100 4e c8 1d bd 57 0c 3e 3d ee 25 ac 3d 76 7f 70 bd
       -0.038521104 0.046398487 0.08405672 -0.058715306
000110 e6 0c 03 bd c0 69 63 bc 1d a2 7b bc b5 db 8e bd
       -0.031994723 -0.013880193 -0.015358475 -0.069754995
000120 ae 1a 0d be ff 30 db bd d5 69 fc bc b1 89 4c bc
       -0.13779709 -0.10702705 -0.030812183 -0.012484
000130 cd bd 61 bb f9 01 59 ba cc 73 2c 3d a9 fe 4d bd
       -0.0034445405 -0.0008278187 0.04210262 -0.05029169
000140 d6 d9 8f 3c 81 aa 0b 3d 3c 3e 86 3d a5 81 b3 bc
       0.017559927 0.034098152 0.06554839 -0.021912405
000150 f0 b0 04 bd a4 9b 41 3d 09 44 51 3c 7a fa 3b 3d
       -0.032395303 0.04726757 0.0127725685 0.04589317
000160 f4 ef 11 3c 83 e1 8e bc 56 6a 8a bd fa 4e 77 bd
       0.008907307 -0.017441517 -0.06758563 -0.060378052
000170 7d 3e e0 bc 98 6f c1 bc b2 a8 0c bd 92 88 ee bc
       -0.027373547 -0.023612782 -0.034340568 -0.029117856
000180 14 65 ba bc 84 ff 14 bd 53 08 9c 3c e6 78 10 3d
       -0.022753276 -0.03637649 0.019046938 0.035271548
000190 0d 03 54 3d 50 6d 74 3c 80 86 8b bc d2 ea 90 3d
       0.051760722 0.01491864 -0.017031908 0.070760384
0001a0 e0 83 2e bc 58 19 9d 3c a2 94 10 3d 28 01 48 bc
       -0.010651559 0.019177124 0.035297997 -0.012207307
0001b0 9c aa e9 bb 03 1b f4 b9 20 03 43 bd 23 3a 42 3c
       -0.007130934 -0.00046559432 -0.047610402 0.011854681
0001c0 e9 84 74 bd 99 d1 62 3d a5 b9 40 bb f6 78 82 bc
       -0.059697066 0.05537567 -0.0029407528 -0.01592682
0001d0 46 75 76 3c 64 07 5a 3d b2 d4 4d 3d 4f 4c bd 3c
       0.015042609 0.053229704 0.05025167 0.023107676
0001e0 f4 39 e6 3c da 5e 31 3d ed 50 81 bc 46 20 44 3c
       0.028103806 0.043303348 -0.015785659 0.011970585
0001f0 b2 96 09 3d 45 a2 77 bc 61 d4 59 3d da 22 0e bd
       0.03359098 -0.015114372 0.053181056 -0.034701206
000200 8a ca 0f bd 8e d3 71 bd c8 71 7e 3d f3 56 c8 3b
       -0.035105266 -0.059039645 0.06212023 0.006113881
000210 35 30 5e 3c ee 1c f4 bc 00 6e 30 bb 53 72 3f 3d
       0.013561298 -0.029798951 -0.0026921034 0.046739887
000220 df 09 80 3c e5 50 67 3d 89 15 a4 3d 4c f9 69 3d
       0.015629707 0.05647363 0.0801192 0.057122514
000230 c6 d5 e6 3c 59 2f 3d 3d 26 30 15 bd ed 8f 5c bc
       0.028178107 0.046187732 -0.03642287 -0.013462049
000240 3c 6e d3 bc e9 a6 a9 bd 1e 70 c0 bd ac 1f 02 bd
       -0.0258094 -0.08283789 -0.09396385 -0.031768486
000250 78 e2 76 bd ea a6 37 3c 8b 6d d6 bb e1 66 15 3d
       -0.06027457 0.011209229 -0.0065438203 0.036475066
000260 fd 72 68 3c 6a 7b d0 b9 41 50 1b bd 58 32 34 3c
       0.014187572 -0.00039764802 -0.037918333 0.010998331
000270 96 bb 47 bd 26 86 ab 3c 0e da 2e 3c 52 61 85 bc
       -0.04876288 0.02093799 0.0106721055 -0.016281758
000280 0b 6d 17 3c 15 d1 d2 3c 71 c9 ec ba 5a 41 12 3d
       0.009242306 0.025734464 -0.0018065405 0.035706855
000290 2e 64 48 3d ed 2e ee 3c 8b 10 b4 3c 8d 66 ac bd
       0.048923664 0.02907511 0.021980545 -0.084179975
0002a0 ee ab 19 bc b5 15 a0 3b 0b 3b 2a 3b 0a 3d 31 bd
       -0.00937937 0.0048854 0.0025975134 -0.043271102
0002b0 e3 83 28 bd 27 0f a4 bc 58 3a 18 3d 9f a6 0b 3d
       -0.041141402 -0.020026756 0.037165016 0.03409445
0002c0 fe 3e af 3c 43 fa 47 3d 7b af da 3c ce 9a 89 3c
       0.021392342 0.048822653 0.026695004 0.01679745
0002d0 ac b7 f0 bc d5 22 4d bd 77 a4 26 bb 83 cf 06 bd
       -0.029384457 -0.050082047 -0.0025427619 -0.032912742
0002e0 94 75 24 3d fb 49 aa bc 7b 74 01 bd 04 a2 86 3b
       0.040151194 -0.02078723 -0.031605225 0.0041086692
0002f0 d8 49 cc bb 62 39 00 3d dc d9 f6 bc ce 6c 8e 3c
       -0.006234389 0.031304725 -0.03013318 0.017385866
000300 15 19 a3 3c 7a 50 43 bd 90 4a 12 bd 01 4a c2 bc
       0.019909421 -0.04768417 -0.03571564 -0.023716928
000310 8f e7 48 3d 92 39 1d bd 60 10 f4 3c d6 a7 0c 3d
       0.049048956 -0.03838498 0.029792964 0.03433975
000320 4e a6 31 bc d8 52 91 3c 78 8a 42 3c 69 13 cc bc
       -0.010842873 0.017739698 0.011873834 -0.0249116
000330 9e 22 02 bd af dd 1a bb 07 95 a4 3d e4 66 6b bd
       -0.031771295 -0.002363067 0.08036237 -0.05747117
000340 fb 44 6c bd 11 de c3 bd 40 26 4d bd 10 81 b8 bc
       -0.057682972 -0.0956384 -0.050085306 -0.02252248
000350 5c 27 fe 3b a1 9d 04 ba dc a6 c9 3d af 8b 49 bd
       0.007756157 -0.0005058889 0.09846279 -0.04920548
000360 74 05 c7 3c 05 86 c7 3d d3 4e dd bc d3 bd 59 bc
       0.024294592 0.09742359 -0.027015125 -0.0132898865
000370 79 51 18 3d 25 14 b2 bd 83 5c 27 bc 8f 5f 81 bd
       0.037187073 -0.086952485 -0.010214928 -0.063170545
000380 93 4c 18 3d d1 c8 11 bd f4 8e 4a bd 34 90 6c 3d
       0.037182402 -0.035591904 -0.049452737 0.05775471
000390 1b 7e a3 3d 2f d6 c9 bb c5 e6 78 ba 9a 96 d1 bc
       0.07983037 -0.006159566 -0.00094948366 -0.025584508
0003a0 6f fc 09 bd cc 31 ea 3c dd 45 e3 bc d0 89 27 bd
       -0.033688005 0.028588198 -0.027743274 -0.040902913
0003b0 eb 88 81 bd 02 f8 27 3d 7a 84 58 3d 28 be e2 3b
       -0.06324943 0.041008003 0.052860714 0.006919641
0003c0 04 1a 8d 3d ce d4 ba 3c 60 b1 08 3d 18 52 ab bc
       0.06889728 0.022806551 0.033372283 -0.020913169
0003d0 88 32 70 bc 7c f5 10 3d ab 42 c8 3d 62 7a 26 3d
       -0.014660485 0.035390362 0.09778341 0.040644057
0003e0 9b 9d a7 3b 88 61 2a 3d 9c e6 97 3c cb 14 a4 3a
       0.0051152236 0.04159692 0.01854258 0.0012518404
0003f0 0e ec 52 3c 96 2e 10 3b e9 ce 27 3d 58 85 c2 3c
       0.012873663 0.0022000424 0.04096881 0.023745224

conv3.0.bias f4 [120]
000000 ba c8 da 39 dc 02 0e bb 62 dc 53 bc 70 82 ae 3c
       0.00041729753 -0.0021669185 -0.012930961 0.021302432
000010 94 4f 88 3c ef 9b a2 bc df bc ac 3c 2c 4e 05 3c
       0.016639508 -0.019849746 0.021086155 0.008136313
000020 69 ff 0e 3d a1 cb 23 bd 66 cb 37 3d dc 06 fd 3c
       0.034911547 -0.039989118 0.04487171 0.03088706
000030 b9 b0 5f 3c 52 34 01 3d a2 6a 59 3d 48 ff 2c 3d
       0.013652974 0.031544037 0.05308021 0.042235643
000040 eb bb c3 ba e1 60 0a 3d ee 31 92 bc 89 9a b4 bc
       -0.0014933323 0.033783797 -0.017846074 -0.022046344
000050 d0 2a 06 3d 0b f0 72 b8 d7 2d d0 bc 21 06 9e 3c
       0.032755673 -5.7920854e-05 -0.025412483 0.019290032
000060 0a 85 2e 3d e2 4e d7 bc 19 71 a8 3c 00 a3 d4 bc
       0.042607345 -0.026282731 0.020561742 -0.02595663
000070 03 fe 3e bd 6f bd f6 bb 12 02 d6 3c d5 7c 11 3d
       -0.046628963 -0.0075299065 0.026124034 0.03551944
000080 53 51 40 bd b9 3e 82 3b 0a 12 bb bc 94 a5 aa 3a
       -0.046952557 0.0039747623 -0.02283575 0.0013019317
000090 a1 02 9d 3c bb 9d 1e 3d aa eb fd 3c 28 b3 30 3d
       0.019166293 0.038724642 0.030996162 0.043139607
0000a0 3b 87 11 3d 0d 54 7f bc a5 b1 6a 3d b7 bc a5 bb
       0.035529356 -0.015584004 0.05729832 -0.005057897
0000b0 d1 af 06 bd 9a c6 09 3c 05 d1 30 3d 75 58 68 3b
       -0.032882515 0.008409167 0.043168087 0.0035453115
0000c0 c6 b6 d9 bc 3d 6d 2f bd 2f f7 9c 3c bf 5f e8 3c
       -0.026576411 -0.042828787 0.019160835 0.028365968
0000d0 55 f1 30 3c 37 ad c8 bb 86 05 db 3c 0a c4 2e 3d
       0.010799726 -0.0061241644 0.026736032 0.042667426
0000e0 57 df 41 3d 5b 4e d1 bc 11 d8 28 bd 5f 28 b2 3c
       0.047332134 -0.025550058 -0.041221682 0.021747766
0000f0 c3 33 26 bd 2c 82 c0 bc 04 c6 0c 3d 37 e0 6f 3d
       -0.040576708 -0.02349957 0.03436853 0.058563437
000100 e4 93 c5 3c 40 d9 92 3c c4 a6 88 3b 0e 15 79 bc
       0.024118371 0.017925858 0.0041702706 -0.015202774
000110 a0 a8 c6 bc 8e a2 ac 3c bf 0b cd bc bb bf 50 3d
       -0.024250329 0.021073606 -0.025030015 0.0509641
000120 48 47 ed 3c f7 f1 60 3d 0f 71 48 bc 85 d7 79 3c
       0.028964654 0.054918256 -0.0122339865 0.015249138
000130 62 63 44 bd eb d4 56 3d ac 26 27 3d 16 e9 fe bb
       -0.04794634 0.05244915 0.040808365 -0.007779251
000140 e9 ec 3b 3d e5 ba d9 3c 16 f3 db 3c bb ef 19 3d
       0.045880232 0.026578376 0.02684931 0.03758214
000150 69 ab 17 bd 38 59 55 bd 6d fc 66 3d d9 29 04 3c
       -0.037028704 -0.05208704 0.056393076 0.008066618
000160 64 4b 9f 3c e1 09 37 3c 91 bc 61 3d f4 03 b3 bc
       0.019445129 0.011171789 0.05511147 -0.021852471
000170 46 2d 79 3c 22 60 1d bd 68 71 b4 3c 34 d3 5d 3c
       0.015208548 -0.038421758 0.022026733 0.013539124
000180 b5 3c 54 3d a6 75 09 3d 4e f4 bf bc 00 17 e0 bc
       0.051815707 0.033559464 -0.023431923 -0.027354717
000190 4c 76 06 3d 88 0f e5 bb ba d0 23 3d d4 22 37 bb
       0.03282766 -0.006990377 0.03999398 -0.0027944343
0001a0 2a 52 33 3b 1d a7 bb ba b4 c2 9d 3a f3 c0 05 bd
       0.0027362206 -0.0014316771 0.0012036175 -0.032654714
0001b0 48 34 ca bc df 59 ad 3c cc 38 ae bc 53 3e ec bc
       -0.024683133 0.021161018 -0.021267317 -0.028838312
0001c0 01 97 57 3c 8d 5b 3f bd f3 ce 0c bb df 27 4c bd
       0.013158561 -0.04671817 -0.0021485656 -0.04984271
0001d0 42 a1 54 3d 75 3e d2 bc b4 5e 27 bd dd 48 3d bd
       0.0519116 -0.025664547 -0.0408618 -0.046212066

fc1.0.weight f4 [84, 120]
000000 cf b7 82 bc da 4e 7c bd 0c 4b 88 3c 1b 8e 1e 3c
       -0.015956787 -0.061598636 0.016637348 0.009677435
000010 fa 7e 0f 3d 92 c6 8a bd 3b a1 32 3c 55 31 96 3d
       0.035033204 -0.067761555 0.010902698 0.07333628
000020 7b 9e 2e 3d a1 8c 75 bd 47 c1 64 bd 31 10 31 bd
       0.042631608 -0.059948567 -0.055848386 -0.043228332
000030 ca 26 9e bc 8d 79 7a 3d 38 8d 0a 3d 1d 34 43 bd
       -0.019305605 0.061151076 0.033826083 -0.04765712
000040 51 80 3e bd 9f 90 e8 3c 6a 48 de bc 17 b2 84 bd
       -0.04650909 0.028389273 -0.02713414 -0.064792804
000050 99 87 8a bb 04 9c 56 3d 70 21 66 bd 82 d9 23 bc
       -0.0042275903 0.05239488 -0.056184232 -0.010000588
000060 f6 26 4f 3d ed 5f 6a bd 04 17 dc 3b a8 7a 9a 3d
       0.050574265 -0.05722039 0.006716611 0.07542926
000070 d9 b3 15 3c 83 fc b5 bd 0a af db 3a 37 61 c1 3c
       0.009137117 -0.088860534 0.001676054 0.023605926
000080 12 3f b8 bd 83 eb 0a 3c c7 09 b8 bd 36 04 96 bd
       -0.08996405 0.008479002 -0.0898624 -0.07325022
000090 ba ee 63 bd 04 b4 2d 3d 0c 5d 63 3c 7d 14 62 3d
       -0.05564759 0.042408004 0.013877165 0.05519532
0000a0 25 57 9f bd 71 a5 aa bd 9e 59 8d bd 0a 02 95 3a
       -0.077802934 -0.08332337 -0.06901859 0.0011368406
0000b0 47 27 6b bd 5f cc eb 3c 7c 1c 84 bd 2b 3e 14 3c
       -0.057410505 0.028783975 -0.064507455 0.009048025
0000c0 7b bc b3 3d 81 75 b9 3d 3a 7e 8c 3d 01 19 a2 3d
       0.08776184 0.09055615 0.06860013 0.07914925
0000d0 75 5c 7b bd e0 f9 1b 3d 93 e8 24 bd 7c 01 bf 3c
       -0.06136747 0.038080096 -0.040260863 0.023316137
0000e0 15 8e ce bb 64 f9 3c bd 0a 52 0a 3d f5 af a9 bd
       -0.0063035586 -0.046136275 0.033769645 -0.08285514
0000f0 14 a2 35 bd 22 b8 40 3d 7c 96 53 ba b5 d6 92 bd
       -0.044344023 0.047050603 -0.0008071435 -0.07169858
000100 e1 9d a8 bd 4a 84 32 bd fc b2 b9 3d 8f 38 a7 bd
       -0.08233238 -0.043583192 0.09067342 -0.081650846
000110 a6 12 5d bd 74 01 60 bd e2 35 c9 3d c5 ae 82 bd
       -0.053972863 -0.054688886 0.098247305 -0.06380991
000120 68 84 7f bd 65 0a 78 3d 08 ae 06 3d 77 b8 c1 3c
       -0.06238213 0.060556788 0.032880813 0.02364753
000130 a2 5f 0a bd 7c 48 38 3d 84 1f ba 3d 45 5f 27 3c
       -0.03378261 0.044991 0.090880424 0.010215585
000140 cd 85 37 3d 7d 21 6e bd 17 c6 3c 3c 2f 5b 9b bc
       0.044805337 -0.058137406 0.011521838 -0.018964378
000150 6e ea 04 3d 3d 9e 56 3d 25 47 69 3b cf b1 b3 bd
       0.032450132 0.052397 0.0035595384 -0.08774149
000160 21 b0 b1 3d 07 09 15 3d f3 6f 97 3d 4c d2 8f bd
       0.08676172 0.036385562 0.073943995 -0.07022533
000170 32 ce 3c bd 45 c0 c3 bc 84 62 e3 bc e7 8d 51 bd
       -0.04609508 -0.023895392 -0.027756937 -0.05116072
000180 3e 4f ba bd e2 29 df bc fa 34 2a bd 9e e6 1a bd
       -0.090971455 -0.027241651 -0.04155443 -0.03781759
000190 29 e9 03 bd 43 cb 9a bd eb 2d 00 3d b7 3d 74 bd
       -0.03220478 -0.075583 0.03129379 -0.05962917
0001a0 58 0c 4a bd 24 0a 0c bd 70 19 8c 3d 33 1c 3f bd
       -0.04932818 -0.03418936 0.06840789 -0.046657752
0001b0 e3 a5 35 3c 81 61 13 3b 84 9c b2 bd 60 d5 63 3d
       0.011086914 0.0022488537 -0.08721259 0.055623412
0001c0 f6 30 8b bd b2 2a a4 3c df 33 6b bd 63 24 a6 bd
       -0.06796448 0.02003989 -0.057422515 -0.08112409
0001d0 6b e1 3c bd 1f 25 55 bc 9a d1 61 bb 72 7e b3 3d
       -0.046113413 -0.013009339 -0.0034457208 0.08764352
0001e0 89 f5 06 3d 5b 3a 35 bc da 3b 9b 3d 24 8a 90 3d
       0.032949004 -0.011061276 0.07579775 0.07057598
0001f0 4f 5a 7f 3d 21 6f dc 3c ef 5e 93 3d 97 f2 13 3c
       0.062341984 0.02690846 0.071958415 0.009030006
000200 01 be b6 3c 9b 38 92 3d d1 d1 43 bd e4 1b 09 3d
       0.022307398 0.07139703 -0.04780752 0.033473864
000210 4f 9a ab bd ef e0 82 bc 10 aa a6 3c 72 1f 85 bd
       -0.083790414 -0.015976397 0.020344764 -0.06500138
000220 a7 6b b6 bd 5c d1 c2 bc 2f 84 96 3d 80 8b 12 3d
       -0.08907252 -0.023781471 0.07349431 0.03577757
000230 f3 61 8a bc 43 40 4b bd c9 fc 02 bc 76 41 3f bb
       -0.016892409 -0.04962183 -0.007994839 -0.0029183305
000240 4c bb a5 3d dc 9c 85 bd 13 2d 72 3c c1 02 cb 3c
       0.08092365 -0.06524059 0.014781254 0.024781587
000250 e0 70 40 3d 9b 72 22 3d ae f0 8b bd 53 e4 83 3d
       0.046982646 0.039660078 -0.068330154 0.06440034
000260 a5 33 62 3d 8e 55 9d bd 48 2f a3 3b 34 73 16 bd
       0.055225033 -0.07682334 0.0049800016 -0.03673096
000270 00 50 60 bd 02 3f c2 bc 56 39 94 3d e3 02 8a 3c
       -0.054763794 -0.023711685 0.072374985 0.01684708
000280 e7 19 a9 bd a7 a8 68 3d 1a 92 85 bd 83 2b ad 3d
       -0.082568936 0.056801464 -0.06522007 0.08455565
000290 cd ec 99 bc 40 51 ac bd 03 79 92 3d 61 0c de 3b
       -0.018789673 -0.08413935 0.071519874 0.006776378
0002a0 08 20 66 bd 29 da 84 3c 4f 9b 23 3d 8c 73 59 ba
       -0.05618289 0.016217308 0.039943036 -0.0008295111
0002b0 7e fb 90 bb 75 58 b8 bc 0d 04 28 bd 71 0a 69 bd
       -0.0044245115 -0.022503117 -0.041019488 -0.056894723
0002c0 59 cd 90 3c e2 49 ad 3d ad 58 ba bc ae 78 ba bd
       0.017676042 0.08461358 -0.022747362 -0.09105049
0002d0 85 5f 40 3d 40 01 81 3d d4 3b 7a 3d 30 99 a7 3c
       0.046966095 0.062990665 0.061092213 0.020458788
0002e0 d3 21 f5 bc 56 7a e3 bc bf 56 65 bd 28 67 b1 bd
       -0.029923355 -0.027768295 -0.05599093 -0.086622536
0002f0 2a 0c df 3c ba be 98 bc fc 01 93 bd 42 4c 81 bd
       0.02722748 -0.018645633 -0.07178113 -0.06313373
000300 c8 b5 14 bd 11 e4 8c bd 6e d1 35 bc 47 88 66 bd
       -0.036306173 -0.06879438 -0.011097295 -0.056282308
000310 eb 65 17 3d 2f 41 7d 3c 4a 95 bc bd f5 e4 80 bd
       0.03696243 0.0154574355 -0.09208162 -0.0629367
000320 8a f8 b0 3d 70 85 85 bd d1 09 8f bd 16 c9 8f 3d
       0.08641155 -0.06519592 -0.06984294 0.07020776
000330 c3 1c 41 3d bd 7e 32 bd a8 54 41 bd a6 a3 8b bb
       0.04714657 -0.0435779 -0.047199875 -0.004261452
000340 d3 0b 8c 3d d0 45 b9 3c de ec 68 bd e5 d8 9a 3d
       0.06838193 0.022616297 -0.05686652 0.075609006
000350 c8 a7 ab 3c 85 bd 65 3d f5 a8 31 3d 99 23 7f 3c
       0.020954028 0.056088943 0.04337402 0.015572452
000360 65 41 b0 bd c1 cd 53 3d 8b 9f 6f 3d ce ab 7e 3d
       -0.08606223 0.051709894 0.05850176 0.062175564
000370 03 85 da bc b2 13 9c 3d df 19 1e 3c a8 da 53 bd
       -0.026674753 0.07620944 0.009649723 -0.0517222
000380 27 8d c2 bd bd a7 44 bd 9b 34 b9 bd ed 14 4e 3d
       -0.09499579 -0.04801153 -0.09043237 0.050312925
000390 84 a0 8d bd a8 b9 8a bd ab dd 5d bb 5e 78 9a bc
       -0.069153816 -0.06773692 -0.0033854048 -0.018856224
0003a0 57 0b c4 bc d7 f5 59 bd f5 27 1d bd d0 c2 2e bd
       -0.023931189 -0.053212967 -0.038368184 -0.042666256
0003b0 0d d4 8b 3d 3f e9 b4 bd 0e 08 55 bd 48 7c 84 bd
       0.06827555 -0.08833551 -0.052009635 -0.06469017
0003c0 af 2f a0 3d 1e b2 87 3d 35 5c 34 bd 03 73 f3 3c
       0.07821595 0.0662577 -0.044033248 0.029717928
0003d0 ce b9 96 3b f4 49 a0 3c f3 75 1d 3d 05 39 93 3b
       0.0045997864 0.019566514 0.038442563 0.0044928812
0003e0 2e b6 8b 3d ab 42 75 3d 2e 2d b4 3d cb 5d a1 bd
       0.068218574 0.059878033 0.0879768 -0.07879218
0003f0 3a 8c ae bc 75 e2 85 3d 77 68 08 3c 51 f8 c8 3c
       -0.0213071 0.06537334 0.008325688 0.024532469

fc1.0.bias f4 [84]
000000 ba 92 13 3a 7e 11 16 3b b8 3c a1 bd 7e 51 09 3d
       0.0005629469 0.002289861 -0.07872909 0.033524983
000010 f8 04 6a bd 0a 7e 59 bc 00 d7 8a bd 54 37 91 3d
       -0.057133645 -0.013274679 -0.06779289 0.07090631
000020 e2 54 97 bd 89 0e 6a 3d 03 1f 30 bd c6 30 b0 bd
       -0.07389237 0.057142768 -0.042998325 -0.08603053
000030 10 96 6e 3d f0 fe 36 bd d2 0b a9 bd d0 72 b1 bd
       0.05824858 -0.04467672 -0.08254208 -0.08664477
000040 07 a3 49 bd 04 ae c2 3c a3 66 57 3d 46 0e 4d bd
       -0.04922774 0.023764618 0.052588116 -0.05006244
000050 0f 69 ad bd 4c 7b db bc 3e 4f 2e bd 4e 82 98 bc
       -0.08467304 -0.026792191 -0.04255604 -0.018616822
000060 a5 5d 85 bc d3 ca 27 3d e5 3a af 3d 39 b5 b4 3d
       -0.016280005 0.040964913 0.08556155 0.08823628
000070 b5 8f a1 3d fe 21 af 3d 9f 90 a9 bd e8 8d 03 3c
       0.07888738 0.08551405 -0.082795374 0.008029439
000080 c1 c2 9a 3d 7d ea a4 bc 84 b8 42 bd 2d 20 78 bb
       0.075566776 -0.020131344 -0.04753925 -0.0037860975
000090 77 95 9a 3d f9 e1 15 bd 7a df 8e bd 43 62 c8 3d
       0.075480394 -0.036592457 -0.069762185 0.09784367
0000a0 e2 97 e1 3d 26 98 b3 3c ce c7 72 3d f4 e1 68 3d
       0.110152975 0.021923136 0.05927258 0.05685611
0000b0 6d 9a 9d bc 8d 4c 2d 3b aa 01 85 3d 3e 8a 7a bd
       -0.019238675 0.0026443333 0.06494458 -0.061166994
0000c0 90 78 bb bc 3c 66 be 3d ca 5b 86 3d e8 19 b4 3d
       -0.022884637 0.092968434 0.06560476 0.08794004
0000d0 40 d6 bf 3a f9 22 96 3d 42 0f c3 3d 17 bf 8b 3d
       0.0014635995 0.07330889 0.095243946 0.06823557
0000e0 df b7 14 3d 2c b2 8c 3d fe dd 5d bd 7e 8c bc bc
       0.036308166 0.06869921 -0.054166786 -0.02301621
0000f0 fe 03 e6 3d c4 bc b4 3d 9f df 06 bd 5a 9b 28 bc
       0.1123123 0.08825067 -0.032928105 -0.010290945
000100 d8 15 dd bc 68 b5 c3 3d 4d 8c b0 bd 47 c3 b8 bd
       -0.026987955 0.09556085 -0.0862051 -0.09021621
000110 6e 91 12 bc da 9c f4 3d 5f b0 0d bd ee 99 81 bc
       -0.008945806 0.119439796 -0.03459203 -0.01582047
000120 a3 31 40 bd 52 51 02 3e 55 73 56 3d a6 cf 1c 3b
       -0.046922337 0.12726334 0.052356083 0.002392748
000130 38 8f b8 3d aa e9 94 bd cc 88 d2 3d 12 bf 28 3d
       0.09011692 -0.072711304 0.10279998 0.041197844
000140 ea 37 91 3c 58 8f c7 bd 30 c7 39 bc 1b 9c 28 bc
       0.017726857 -0.097441375 -0.011338994 -0.010291125

fc2.0.weight f4 [10, 84]
000000 13 f8 d6 bd c6 5f b4 bd 99 6c e0 3c 5d fb b8 3d
       -0.10496535 -0.0880733 0.027395533 0.09032319
000010 5b d3 8e bc fa 27 75 bc aa a1 be 3d 9d 56 a2 3d
       -0.017434767 -0.014963144 0.09308179 0.079266764
000020 b8 98 af bd 39 1e 11 be 1c f0 07 3d 11 45 5f be
       -0.08574051 -0.14171685 0.03318797 -0.2180369
000030 8f d4 86 be 53 02 ee 3b 42 26 8e 3d d6 3f c0 3c
       -0.26334044 0.0072634607 0.06940891 0.02346794
000040 87 c7 4b 3e c9 f5 6e be 25 6f b0 3b db 36 55 bc
       0.19900332 -0.23335947 0.005384343 -0.013013567
000050 1a ee b5 bc 77 ed 08 be 67 7e 71 3c b2 2b fe bd
       -0.022208262 -0.13371836 0.014739609 -0.12410678
000060 cf 19 f9 ba ec 70 5e 3d 2c f7 eb bd 15 1c 56 3d
       -0.0019004884 0.05430691 -0.11521754 0.052272875
000070 f7 00 a8 3d 0d 4b 54 be c7 8d 57 3e 6d 3c 97 3d
       0.08203309 -0.20731755 0.21050178 0.07384572
000080 80 19 f2 3c a9 75 2d be b3 9f 2f be 12 4c d5 3d
       0.029553175 -0.16939415 -0.17150764 0.104149
000090 ba 99 d1 3d 37 9a 4a be f3 91 2f bc f9 be a3 bd
       0.10234399 -0.19785391 -0.010715949 -0.079954095
0000a0 be 19 2f be a5 80 95 3d 06 cc 8b 3e 40 f6 1f 3e
       -0.17099664 0.072999276 0.27304095 0.1562128
0000b0 a9 0a 2d ba 55 1a 6a be 80 d6 22 3a 23 cb f8 3d
       -0.0006601015 -0.22861607 0.00062117726 0.1214812
0000c0 a7 13 4c bd e5 f6 0e be 75 55 d5 3a 61 c5 e4 bd
       -0.04982343 -0.1396137 0.0016276079 -0.111704595
0000d0 a2 79 5e 3e ec ca e5 3d 04 57 90 3c 95 24 87 3e
       0.21726087 0.11220345 0.017619617 0.26395097
0000e0 35 6c 99 bd 29 38 a1 3d 52 42 14 bd 1f 0e 46 3d
       -0.07491342 0.0787204 -0.03619606 0.04835331
0000f0 ba 72 11 be 4a d7 00 3d 7b 8e f9 bb 1b 33 89 bd
       -0.14203921 0.031455316 -0.007615862 -0.06699201
000100 dd 7a d8 3d 2b 02 b8 bd ba 12 c7 bd 8f 1d 23 be
       0.10570309 -0.089847885 -0.09720369 -0.15929244
000110 e3 f1 21 3b 5a 45 52 bd 7c a3 ee b9 09 a2 96 3e
       0.0024710826 -0.05133567 -0.00045516703 0.29420498
000120 43 ca 8d bd e0 da e4 bd 9a 3f 04 3e fe 2e 8c 3d
       -0.06923344 -0.111745596 0.12914887 0.068449005
000130 05 5c fe 3c ce 47 ba bd 25 1a 1d bd 18 f9 c7 bc
       0.031049738 -0.09095727 -0.03835501 -0.02441077
000140 bb 7f da bd d7 d2 7d 3e 8c 31 f0 3c 24 65 72 bd
       -0.10668894 0.2478746 0.0293205 -0.059178486
000150 a1 4f c5 3d f6 44 1b 3d fd 31 10 be df b7 32 be
       0.09634329 0.037907563 -0.14081569 -0.17452954
000160 33 9d e9 3d 0d f5 81 3d 93 70 8b bd 94 4b 93 bc
       0.114069365 0.06345568 -0.06808581 -0.017980374
000170 53 39 18 3e 25 a3 87 be af a3 e3 bc 70 d0 32 bd
       0.14865617 -0.26491657 -0.027788011 -0.043655813
000180 69 31 0e bd b2 03 de 3d 31 1b df 3d 65 f8 0b 3e
       -0.03471509 0.108405486 0.10893858 0.13668974
000190 c9 b5 23 bb 71 a3 44 3e c4 e5 55 be 13 7b 10 3d
       -0.0024980179 0.19202973 -0.2088843 0.035273623
0001a0 35 64 b6 bd eb 44 14 3e c8 99 7f 3c 07 5c da 3d
       -0.08905832 0.14479415 0.015600629 0.10662084
0001b0 5c 9f bb 3d a6 84 b9 3d 76 64 e0 bd 11 78 cf bd
       0.09161255 0.09058504 -0.109566614 -0.10130323
0001c0 59 b6 04 bd d4 21 31 3e a2 88 b8 bd 08 68 d5 bc
       -0.032400463 0.1729806 -0.09010436 -0.026050583
0001d0 55 68 40 3c b3 23 96 bd 4b 77 2e bd 32 ef 60 bd
       0.011743625 -0.07331028 -0.042594235 -0.054915614
0001e0 d2 f6 50 3e 4b ff 51 be 35 df 97 3c 70 66 89 3e
       0.20406654 -0.20507543 0.01853905 0.26835966
0001f0 9d c0 a9 3e 9c 1d 92 bd 8e 73 92 3d 94 46 b3 bd
       0.33154765 -0.07134554 0.071509466 -0.08753696
000200 d1 37 a7 bd 9c b4 01 be c5 a7 d6 bd 0b 52 fe bd
       -0.08164943 -0.12666553 -0.10481218 -0.12417992
000210 b8 84 4d be 96 a2 84 3d 96 07 73 3c b4 a3 6c 3d
       -0.2007016 0.06476323 0.014833352 0.057773307
000220 44 07 78 be 07 6e 05 be 59 98 11 3e df c8 d4 bb
       -0.24221522 -0.13030253 0.14218272 -0.0064936723
000230 e2 5f 5f bd 3d 77 4c 3e c5 68 86 3a f2 78 a9 3b
       -0.0545348 0.19967361 0.0010254612 0.0051718885
000240 98 66 a5 bd 87 a9 37 be c3 4b f1 3c 2b c5 4d be
       -0.08076209 -0.17935763 0.029455071 -0.20094745
000250 14 6f 1d 3c 57 3b 57 3b 2a e7 17 3e 00 d1 03 3d
       0.009609003 0.0032841766 0.14834276 0.03218174
000260 43 be f7 3d cf d1 a6 3e 1f 92 b3 3d c0 8b c6 3d
       0.120968364 0.32581946 0.08768105 0.09694624
000270 4a bf 5c 3d 86 e1 85 3e f6 2d 81 bd 59 8c 18 3d
       0.053893365 0.26148623 -0.063075945 0.03724322
000280 ef a8 a0 bd 08 10 14 bd 68 05 6b 3d fb f0 1f bd
       -0.078447215 -0.0361481 0.057378203 -0.039048176
000290 c9 4a d9 bc f2 5d 91 bc 4b 3e da bc 0f 4d 0b 3e
       -0.026524918 -0.017744992 -0.026641032 0.13603614
0002a0 d2 00 d6 bd 08 81 95 3d a5 2b b5 bb 29 0e 0d be
       -0.10449375 0.073000014 -0.0055288845 -0.13774933
0002b0 aa 71 43 3b 78 6d c0 bd cf 95 d2 bd 47 4a 8f bc
       0.0029822388 -0.093958795 -0.1028248 -0.017491473
0002c0 a4 c9 0f be 19 01 fc bd f9 95 ba 3d 05 e1 23 3e
       -0.14041764 -0.12304897 0.09110636 0.16003807
0002d0 55 37 cf bd a9 09 f0 3d 4a fe 82 bd 09 c4 d5 bd
       -0.101179756 0.117205925 -0.06396158 -0.10437781
0002e0 ea 68 c1 bc aa 24 1c 3e d2 f2 f9 bd 82 01 a4 3d
       -0.023609597 0.15248361 -0.122045174 0.080081
0002f0 46 53 53 be 02 68 2f bd 49 a2 1a 3e 92 aa 6d bb
       -0.20637235 -0.0428238 0.1510097 -0.0036264998
000300 cb 62 0d 3e 3f d4 c3 bd c1 05 27 3e 23 c2 7a be
       0.13807218 -0.09561967 0.16310789 -0.2448812
000310 7d c8 4f be 2c 48 9e be 1f f7 13 bd 52 d8 ac 3c
       -0.20291324 -0.30914438 -0.036124345 0.021099243
000320 75 16 71 3d 6d a5 b7 3d 6a f8 eb bc 91 fa 84 3c
       0.058859307 0.08967099 -0.028804976 0.01623276
000330 62 84 69 bd 02 43 0f 3e a0 26 47 3a 46 36 10 3e
       -0.057011016 0.13990405 0.0007597003 0.14083204
000340 ed 25 9c 3d c0 5c 66 3e 12 04 69 3e fe a7 f2 bd
       0.07624421 0.22496319 0.22755459 -0.11848448
000350 1a e8 00 3e c5 c7 99 bd e3 b7 fc 3d 17 1a d7 3d
       0.1258854 -0.07508806 0.12339761 0.10503023
000360 e0 fd 7e 3d 98 a2 89 be b3 bc 84 3e 75 12 4b bd
       0.062253833 -0.26881862 0.25925216 -0.04957815
000370 ec 32 95 3d 8a 10 6f 3d 49 56 7e be bc cd dc 3a
       0.07285103 0.058365382 -0.24837603 0.0016845982
000380 d5 f1 fe 3d 20 04 0a 3e 58 8c ca 3d 79 3e 66 bc
       0.124484695 0.13478136 0.0989005 -0.014052981
000390 9e 68 99 bd a2 8f 59 be 2b 1c 74 3c 50 7f c8 bd
       -0.07490657 -0.21246198 0.014899294 -0.09789908
0003a0 fb eb 72 3d 2d e4 24 3e 04 27 12 3d 9c 01 0d bd
       0.05930708 0.16102667 0.03568174 -0.034425363
0003b0 43 1d 18 3e 30 fd fa bd 16 84 5c 3e 74 43 82 3e
       0.14854912 -0.12255323 0.21534762 0.25442088
0003c0 a2 94 86 bc ab 4d ea bd 53 3a ff 3d cc 1d af bd
       -0.016428296 -0.11440595 0.12462296 -0.08550605
0003d0 54 a2 a5 bd dd 5d 3c bd 80 c4 09 3e a0 70 51 3e
       -0.08087602 -0.045987953 0.13453865 0.2045312
0003e0 8a 41 a3 3d 44 89 c0 bd 2a 09 f0 3c 2d ef 0b be
       0.07971485 -0.09401181 0.029301245 -0.13665457
0003f0 c5 80 d9 bd 1d e1 94 bd d3 02 cd 3d d9 d8 26 be
       -0.10620264 -0.072694995 0.10010304 -0.16293658

fc2.0.bias f4 [10]
000000 04 cc b5 bd 38 20 3e 3e 92 8f 11 3c 9a 40 58 bc
       -0.088768035 0.18566978 0.0088843275 -0.013198996
000010 b8 93 1a bc e5 22 6d 3d d5 09 e9 bc 34 8b 34 3b
       -0.009434633 0.057894606 -0.028447071 0.0027548792
000020 41 21 19 bc 7a ea 35 3d
       -0.009346307 0.044413067
